models/emb_middle_model_params.pt (torch, 46133 bytes, 16 tensors)

encoder.0.weight f4 [15, 15, 3, 3]
0	0x3e057bbf	0.13035487
1	0x3e8bc711	0.27300313
2	0xbd2b2766	-0.04178562
3	0x3d94ac72	0.07259454
4	0xbe130bfb	-0.14360039
5	0x3e52a4c7	0.2057067
6	0x3d352a05	0.044229526
7	0x3d294578	0.041326016
8	0xba89d34c	-0.0010515242
9	0xbd7508f5	-0.059822995
10	0x3db87693	0.09006991
11	0xbdb10a86	-0.08644585
12	0xbe2c4885	-0.16824539
13	0xbd7fc948	-0.062447816
14	0x3d19b51b	0.03752623
15	0x3dd6a1b8	0.10480064
16	0x3de8356b	0.11338314
17	0xbd370c67	-0.044689562
18	0xbd8b93e2	-0.06815316
19	0xbcf0eb50	-0.02940908
20	0x3da53d27	0.080683045
21	0x3e57e700	0.21084213
22	0x3e88e522	0.26737314
23	0x3e404311	0.18775584
24	0x3d9f327d	0.07773302
25	0xbc413015	-0.011791249
26	0x3d994788	0.07484347
27	0x3d0260f7	0.031830754
28	0x3e2050c5	0.15655811
29	0x3eb185e4	0.34672463
30	0xbdf6651c	-0.12031004
31	0x3d8054df	0.06266188
32	0x3df1ad23	0.11800601
33	0x3e5161ea	0.20447508
34	0x3e26aaa7	0.16276036
35	0x3e5b3a3b	0.21408932
36	0x3e1fb24e	0.15595362
37	0xbea977eb	-0.33099303
38	0x3e1eb7e5	0.15499838
39	0x3e2f3050	0.17108274
40	0xbe71a157	-0.23596703
41	0xbec881eb	-0.3916162
42	0xbde73c1d	-0.112907626
43	0xbd82d173	-0.063876055
44	0x3e87610e	0.26441234
45	0xbe5f2669	-0.21791996
46	0x3de6f6ae	0.11277519
47	0xbdebf17c	-0.11520669
48	0xbe420dd8	-0.18950593
49	0xbe5c8190	-0.21533799
50	0xbdea1e60	-0.11431575
51	0xbe4b153f	-0.19832323
52	0xbedfecaf	-0.43735263
53	0x3e48ba7a	0.19602385
54	0x3de2e45b	0.110787116
55	0xbc547d7a	-0.012969369
56	0x3e643a84	0.22287947
57	0x3e712d18	0.23552358
58	0xbdfd87ad	-0.12379394
59	0xbc315e97	-0.010825775
60	0x3e24fa8a	0.16111198
61	0xbdd4a997	-0.10383909
62	0x3deb4126	0.114870355
63	0xbe0a9687	-0.13533984
64	0xbebf87eb	-0.37408385
65	0xbe2cdeb8	-0.16881835
66	0xbd8ddcf9	-0.06926913
67	0xbaf576b8	-0.0018727398
68	0xbdbdd834	-0.09269753
69	0xbeaa8c83	-0.33310327
70	0x3d90790e	0.07054339
71	0xbd2f13e8	-0.042743593
72	0x3e47e01b	0.19519083
73	0x3e28f032	0.16497877
74	0x3d61dc6d	0.055141855
75	0x3e1d7eb5	0.15380366
76	0x3d2b3aed	0.041804243
77	0xbd8d6c02	-0.069053665
78	0xbd18117b	-0.037126046
79	0xbc3dd457	-0.01158627
80	0x3d9318da	0.071824744
81	0x3dbedfc0	0.09320021
82	0x3de26567	0.11054497
83	0x3d2947cf	0.041328248
84	0x3c7c1671	0.01538621
85	0x3e2c79b5	0.16843303
86	0x3eef6388	0.46755624
87	0xbeb3c3ec	-0.35110414
88	0x3ec8a9be	0.39192003
89	0x3ed1ce0e	0.4097752
90	0xbd52fa52	-0.051508255
91	0xbc885b85	-0.016645202
92	0xbdfa7ef5	-0.122312464
93	0xbdb9684d	-0.09053097
94	0xbe50e765	-0.2040077
95	0xbe2511f6	-0.16120133
96	0xbe7bfb1e	-0.24607512
97	0xbde3d278	-0.11124128
98	0xbdbc3871	-0.09190453
99	0xbd78b787	-0.0607219
100	0xbdd17b29	-0.10228569
101	0x3d4eb493	0.050465178
102	0xbdba4187	-0.090945296
103	0xbdec9313	-0.1155149
104	0xbe26eb32	-0.16300657
105	0x3db6c656	0.08924548
106	0xbd0a22ab	-0.03372447
107	0xbdbfcb76	-0.09364979
108	0x3d697505	0.056996364
109	0xbe268441	-0.16261388
110	0x3d6dd501	0.058064464
111	0xbe520463	-0.20509486
112	0xbd97038c	-0.073737234
113	0x3e34d6e7	0.17660104
114	0x3ac01eae	0.0014657581
115	0xbeb2b596	-0.34904164
116	0xbeb62b6e	-0.3558001
117	0xbf8ae693	-1.0851616
118	0xc0528c66	-3.2898192
119	0xc0a4a88a	-5.1455736
120	0xc03a5dc6	-2.9119735
121	0xc04b1dbc	-3.1736898
122	0xc0858653	-4.172647
123	0xc05b2bb7	-3.4245431
124	0xc050fbac	-3.2653608
125	0xc0135696	-2.3021598
126	0x3edb5973	0.42841682
127	0x3da6ecba	0.08150621
128	0xbe60827f	-0.2192478
129	0xbf5ef709	-0.87095696
130	0x3eea2a18	0.4573524
131	0x3de1cda8	0.11025554
132	0xbf7ee374	-0.99565816
133	0xbcdc4dac	-0.026892506
134	0x3e19dcdc	0.15025657
135	0xbe231517	-0.15926014
136	0xbe048147	-0.1293994
137	0x3c44ff3b	0.012023742
138	0xbd3bd8f3	-0.045861196
139	0x3e8f66b2	0.28008038
140	0xbeb024e7	-0.34403154
141	0xbd45ed7a	-0.04832218
142	0x3d718d8d	0.058972884
143	0xbf0b1352	-0.54326355
144	0x3cb722ef	0.022355525
145	0xbd4e25e3	-0.0503291
146	0xbd1470fc	-0.036240563
147	0xbdd2012c	-0.1025413
148	0x3d12c240	0.035829782
149	0x3e2bc416	0.1677402
150	0xbd2998dd	-0.041405547
151	0x3e83c8e3	0.25739202
152	0x3e891e60	0.26780987
153	0x3d0e182e	0.03469103
154	0x3ea306e6	0.318412
155	0xbcaef960	-0.021359146
156	0x3d258591	0.040410582
157	0x3ea1f08d	0.31628838
158	0x3e39f4f5	0.1815985
159	0xbead2167	-0.33814546
160	0xbe703b03	-0.23460011
161	0xbe06a5df	-0.13149212
162	0x3e60479a	0.21902314
163	0xbd09ff78	-0.0336909
164	0x3d86a0bd	0.06573627
165	0x3e3f7d31	0.187001
166	0xbb54668d	-0.0032409758
167	0xbd09f5c5	-0.03368165
168	0x3e752454	0.2393964
169	0x3eb3927e	0.35072702
170	0x3e7dcb30	0.24784541
171	0x3cbae605	0.02281476
172	0x3e2b09c2	0.16702941
173	0xbba41573	-0.0050074398
174	0xbc61cf75	-0.013782372
175	0x3d87ad0b	0.06624802
176	0x3cc55ea8	0.024092987
177	0xbbd86313	-0.0066036074
178	0x3d429feb	0.04751579
179	0x3d94657e	0.072459206
180	0xbdfeee2c	-0.124477714
181	0xbcb62792	-0.022235665
182	0xbe9dc5d0	-0.3081498
183	0x3ead4cda	0.33847696
184	0xbddb6b5b	-0.10713836
185	0xbdea8bb7	-0.1145243
186	0xbd0754ff	-0.033040043
187	0x3d36c37d	0.044620026
188	0xbd0541dc	-0.03253351
189	0x3d1011a9	0.035173092
190	0x3d96e691	0.07368196
191	0xbdb6ab34	-0.08919373
192	0x3e265c49	0.16246141
193	0xbdf22d17	-0.118250065
194	0x3da01f7b	0.078185044
195	0x3d3e07ae	0.046394043
196	0xbd941116	-0.072298214
197	0xbd9bdf04	-0.07610896
198	0x3d55bb8d	0.052180815
199	0xbdeb4aa2	-0.114888445
200	0x3cd65b3a	0.026166547
201	0xbd62e833	-0.055397224
202	0x3de5d799	0.112227626
203	0x3cb086fb	0.021548739
204	0xbd4f1980	-0.050561428
205	0x3cbb3b5d	0.022855455
206	0x3d56cd56	0.052441917
207	0x3b0d4b0f	0.002155963
208	0xbd31c857	-0.04340395
209	0x3e524cf6	0.20537171
210	0xbd5e72f1	-0.054308835
211	0xbd9e5fe4	-0.077331334
212	0xbd9a7359	-0.07541532
213	0x3dc2531d	0.09488509
214	0xbc80fe66	-0.015746307
215	0xbd19302c	-0.037399456
216	0x3e896634	0.26835787
217	0x3d9ef341	0.07761241
218	0x3eade6dc	0.33965194
219	0x3dae74d3	0.08518376
220	0x3ee6b7d4	0.45062125
221	0x3efdfff9	0.49609354
222	0x3d9bec9c	0.07613489
223	0x3eaca067	0.33716127
224	0x3d234891	0.039864127
225	0xbdb9e92b	-0.090776764
226	0xbe61e67b	-0.22060578
227	0xbc971e5c	-0.018447094
228	0x3de300f0	0.11084163
229	0x3c8d893d	0.017277354
230	0x3c857792	0.016292367
231	0x3d8bf446	0.06833701
232	0xbc895c09	-0.016767519
233	0x3ce3478d	0.027744079
234	0xbe842625	-0.25810352
235	0xbdb0f387	-0.08640199
236	0x3e9efa60	0.31050396
237	0xbdbca624	-0.09211376
238	0xbd2e0119	-0.042481516
239	0x3d3f2daf	0.046674427
240	0x3d9eb174	0.0774869
241	0xbd8de9e1	-0.069293745
242	0x3e021199	0.12702025
243	0x3e8815ad	0.26579037
244	0x3d577ae8	0.052607447
245	0x3e5f576b	0.21810691
246	0xbe3938f8	-0.18088138
247	0x3da501da	0.08056994
248	0x3e947d05	0.29001632
249	0xbe7520d4	-0.23938304
250	0xbdb5896d	-0.088641025
251	0xbe84d241	-0.2594166
252	0x3d4f13af	0.05055588
253	0xbe999b83	-0.3000146
254	0x3ff50987	1.9143533
255	0x3ebb1f85	0.36547485

encoder.0.bias f4 [15]
0	0x3e19fc2b	0.150376
1	0xbe22dc62	-0.15904382
2	0xbd355bc2	-0.04427696
3	0x3e0fb366	0.14033279
4	0x3d2d19bb	0.042260867
5	0xbe0df4ba	-0.13862887
6	0xbdb8f6aa	-0.090314224
7	0xbdcf66d2	-0.10127033
8	0x3de2b590	0.110697865
9	0xbd885ff0	-0.066589236
10	0xbe3555b3	-0.17708473
11	0xbc7f7745	-0.015592401
12	0x3df5f935	0.12010423
13	0x3cd6b0b9	0.026207315
14	0xbd9a8445	-0.0754476

encoder.3.weight f4 [12, 15, 3, 3]
0	0xbe05ebbd	-0.13078208
1	0xbc75c0d8	-0.014999591
2	0xbe8daafb	-0.2766951
3	0xbcfc6270	-0.030808657
4	0x3ec73d93	0.38914165
5	0xbe478751	-0.19485213
6	0x3e4bfaba	0.19919863
7	0x3b9c7a3d	0.004775314
8	0xbcffb4d6	-0.031214159
9	0x3e0959ef	0.13413213
10	0xbd7cdc00	-0.061733246
11	0xbe67ba60	-0.2262969
12	0xbc06b6b1	-0.008222268
13	0x3dd33f88	0.10314852
14	0x3e6021e8	0.21887934
15	0x3e86d117	0.26331398
16	0x3ded201a	0.115783885
17	0xbda56b58	-0.08077115
18	0x3e760b1c	0.24027675
19	0xbe197ffc	-0.14990228
20	0x3d7b966f	0.06142276
21	0xbc272c29	-0.0102034
22	0xbd1c078f	-0.038093146
23	0xbc709e53	-0.014686185
24	0xbc52bd9e	-0.012862591
25	0x3d7c73ac	0.06163375
26	0x3e066b26	0.13126811
27	0xbd0ae28d	-0.033907462
28	0x3e494a92	0.19657353
29	0x3dc38265	0.09546355
30	0x3ea037e1	0.31292632
31	0xbe9df45c	-0.30850494
32	0xbe2dca9d	-0.16971822
33	0xbe8ee1e2	-0.2790671
34	0x3e31103d	0.1729135
35	0x3d2a4001	0.041564945
36	0x3d37ec22	0.04490293
37	0x3dfbac90	0.12288773
38	0x3d95f892	0.07322802
39	0x3d5ed502	0.05440236
40	0xbe977ae7	-0.29585955
41	0xbdba3a38	-0.090931356
42	0xbea7333f	-0.32656285
43	0x3e20f611	0.15718867
44	0x3d2e138b	0.042499106
45	0x3d8e52f5	0.069494165
46	0xbc1fbc12	-0.009749429
47	0xbe166ddc	-0.14690346
48	0xbe68aa32	-0.22721174
49	0x3e66a550	0.22523999
50	0x3d815578	0.0631513
51	0x3e05d38c	0.1306898
52	0x3b061313	0.0020458146
53	0x3e70c245	0.23511608
54	0xbd551caf	-0.052029308
55	0xbc53e445	-0.012932842
56	0x3d2c1c0d	0.04201894
57	0x3dce51e7	0.100742154
58	0xbe348336	-0.17628178
59	0xbd1bff95	-0.03808554
60	0xbcfa7d5e	-0.030577358
61	0x3e11f71a	0.14254418
62	0x3e536a9b	0.20646136
63	0xbe440e2f	-0.19146036
64	0xbd3a5879	-0.04549453
65	0xbe1847b9	-0.1487111
66	0x3d88e30b	0.0668393
67	0xbd8c241f	-0.06842827
68	0x3dd9bda7	0.106318764
69	0xbee239f5	-0.44184843
70	0x3dd81fbb	0.10552927
71	0xbece48d0	-0.40289927
72	0xbd199010	-0.037490904
73	0xbde80881	-0.11329747
74	0x3c201018	0.009769462
75	0x3dd65735	0.10465852
76	0xbe01874c	-0.12649268
77	0xbd1e1189	-0.03859094
78	0x3e4291db	0.19000952
79	0x3c69f262	0.01427898
80	0xbe6d43e5	-0.23170431
81	0x3e73b6b5	0.23800166
82	0xbe0ef037	-0.13958822
83	0x3c7a67ad	0.015283507
84	0xbcd92b99	-0.026510047
85	0x3e335583	0.17513089
86	0xbe8a24b3	-0.26981124
87	0x3e3ba476	0.18324456
88	0x3dbcae79	0.092129655
89	0x3e1f3b38	0.15549934
90	0x3eb01769	0.3439286
91	0xbe64fb26	-0.2236143
92	0x3cf22c71	0.029562207
93	0xbebb018a	-0.36524612
94	0xbca07515	-0.019587079
95	0x3cc6e9f9	0.024281489
96	0xbbbeabb0	-0.0058188066
97	0xbc0e8eb3	-0.008701014
98	0x3d337cce	0.043820195
99	0x3dabb8d2	0.08384861
100	0x3dc56101	0.09637643
101	0xbd0a5b75	-0.033778626
102	0xbe3e7ddc	-0.18602699
103	0xbd445395	-0.047931273
104	0xbc3994eb	-0.011327009
105	0x3d97d4a4	0.07413605
106	0xbe5e12ef	-0.2168691
107	0x3e99a7e8	0.30010915
108	0xbe65efbf	-0.22454737
109	0xbb602c17	-0.0034205967
110	0xbee0ac5a	-0.43881494
111	0x3d147e5e	0.036253326
112	0x3d21eabf	0.039530512
113	0x3e9b1165	0.30286708
114	0xbd42fc88	-0.047604114
115	0x3c899d79	0.016798722
116	0xbf1e7c46	-0.61908376
117	0x3dbad0c1	0.09121848
118	0x3de51499	0.11185569
119	0x3d50ba6e	0.050959043
120	0xbe26634c	-0.16248816
121	0x3e2fbab3	0.17161064
122	0x3dd8a92f	0.10579144
123	0x3e81bae3	0.25337896
124	0x3d393eae	0.04522579
125	0x3cde0059	0.027099775
126	0xbe7242d0	-0.236583
127	0x3e7cca7e	0.2468662
128	0xbe7fccac	-0.2498042
129	0x3e076fc2	0.13226226
130	0xbcc1e0fb	-0.02366685
131	0xbdf8284e	-0.121170625
132	0x3d8da8b1	0.06916941
133	0x3e198d4d	0.14995308
134	0xbda384b8	-0.079842985
135	0xbe383434	-0.17988664
136	0xbcf34c22	-0.029699389
137	0x3e594235	0.21216662
138	0x3d3fc2bb	0.04681657
139	0xbdd2d36a	-0.1029423
140	0xbe36d229	-0.17853607
141	0x3d90845b	0.07056495
142	0x3db3f1ac	0.087863296
143	0x3e57f680	0.21090126
144	0xbe2b3d45	-0.16722591
145	0xbe8ef3dc	-0.27920425
146	0xbc14f798	-0.009092234
147	0x3c1ea2c5	0.009682362
148	0x3e506c53	0.20353822
149	0xbe965f75	-0.29369703
150	0xbe0db7f8	-0.1383971
151	0xbd8332ca	-0.064061716
152	0xbd270b6b	-0.040782373
153	0xbd51f684	-0.051260486
154	0xbea69091	-0.3253217
155	0xbcad232d	-0.021134937
156	0xbe353490	-0.17695832
157	0x3ea67996	0.32514638
158	0x3e4dc2c5	0.2009383
159	0xbd1e7de5	-0.03869428
160	0xbd4d3c98	-0.050106615
161	0xbe27ff77	-0.16406046
162	0xbe00fc6e	-0.12596294
163	0xbe64750c	-0.22310275
164	0x3d4799c7	0.048730638
165	0xbd1bf1d0	-0.038072407
166	0xbdcc476e	-0.09974562
167	0x3e716c9c	0.23576587
168	0xbddefab1	-0.10887659
169	0x3e07d01c	0.13262981
170	0x3d43a84a	0.047767915
171	0xbdab2d98	-0.08358306
172	0x3bf8bb1e	0.0075906655
173	0xbe9fe8bc	-0.3123225
174	0xbd9df2b5	-0.07712308
175	0xbc67ffca	-0.014160106
176	0xbe845ee0	-0.25853634
177	0xbcfa6646	-0.030566346
178	0xbf0544db	-0.5205819
179	0x3ce2d806	0.027690899
180	0x3ea55014	0.32287657
181	0x3d8c8b61	0.06862522
182	0xbe4640b6	-0.19360623
183	0xbc1ec882	-0.0096913595
184	0x3d589ae7	0.0528821
185	0xbdadcdcf	-0.084865205
186	0x3d1a47e4	0.037666216
187	0x3dd3b2f6	0.103368685
188	0x3dfd3b6f	0.12364852
189	0x3d66a98f	0.056314047
190	0x3e97e179	0.2966421
191	0x3e8a4657	0.2700679
192	0xbdc96b7e	-0.09834956
193	0x3dbc0f66	0.091826245
194	0x3dabd6a8	0.08390552
195	0x3d5bd7df	0.053672668
196	0x3e3ef5a3	0.1864839
197	0x3e9834a3	0.2972766
198	0xbdc33e6a	-0.09533389
199	0xbdd0d131	-0.1019615
200	0xbe2e2231	-0.1700523
201	0x3cc45854	0.0239679
202	0x3cc9b874	0.024624087
203	0x3dd5ac9d	0.10433314
204	0xbdf45b9b	-0.11931535
205	0xbcf2090a	-0.029545326
206	0xbe36a8f9	-0.17837895
207	0xbde7d477	-0.11319821
208	0xbe3c0df8	-0.18364704
209	0x3e3155fe	0.1731796
210	0xbbbace06	-0.0057008294
211	0x3e615b7d	0.22007556
212	0x3e1ceb43	0.1532412
213	0x3de7666d	0.11298833
214	0xbdbe790a	-0.0930043
215	0x3db7c518	0.089731395
216	0xbc87df14	-0.016585864
217	0xbd2ed226	-0.042680882
218	0x3e8760ff	0.2644119
219	0x3e6a670b	0.2289087
220	0xbe684069	-0.2268082
221	0x3a86b5cd	0.001027757
222	0xbea22ac5	-0.31673256
223	0x3e6d0bf3	0.2314909
224	0xbd481031	-0.048843566
225	0x3ea73671	0.32658723
226	0xbd6156ba	-0.05501435
227	0xbd852f2a	-0.065031365
228	0x3cb3d588	0.021952406
229	0xbddc8847	-0.1076818
230	0x3dffc780	0.124892235
231	0x3ca221db	0.019791534
232	0xbeb2505d	-0.34826937
233	0xbe0eb85f	-0.1393752
234	0x3dadbe93	0.08483615
235	0x3e8ec882	0.2788735
236	0x3eba7a02	0.3642121
237	0xbdbffbc1	-0.0937419
238	0xbda2f64f	-0.07957136
239	0xbd164d20	-0.036694646
240	0x3d6b8f0e	0.057509474
241	0x3df30bc6	0.1186748
242	0xbd87a78d	-0.06623755
243	0x3d7a5d34	0.06112404
244	0xbd4fcd82	-0.050733097
245	0x3d788d9d	0.060681928
246	0xbe57b331	-0.2106445
247	0x3e93a064	0.28833306
248	0x3dc58f33	0.09646454
249	0xbe1a50af	-0.15069841
250	0xbc4077b8	-0.011747293
251	0x3d72003e	0.059082262
252	0xbd320945	-0.04346587
253	0xbbcd4c1d	-0.006265177
254	0xbca7d534	-0.020487405
255	0x3da24f94	0.079253346

encoder.3.bias f4 [12]
0	0xbd8f5bdf	-0.06999945
1	0xbc8ef440	-0.017450452
2	0xbc626baa	-0.013819614
3	0xbe95f0c2	-0.29285246
4	0x3e3200a7	0.17383061
5	0xbdad7c49	-0.08470971
6	0x3d8c8ad8	0.0686242
7	0x3e0839f2	0.13303354
8	0x3bc84e28	0.0061128326
9	0xbd8ee124	-0.06976536
10	0xbe69ad36	-0.22819981
11	0xbdbd1a19	-0.09233493

encoder.6.weight f4 [9, 12, 3, 3]
0	0x3eb7e44a	0.35916358
1	0x3d51d4c1	0.05122829
2	0xbea90d54	-0.3301798
3	0xbd0360f3	-0.03207488
4	0xbdf6c650	-0.12049544
5	0xbd32db12	-0.043665953
6	0xbe5eae29	-0.21746124
7	0x3e812178	0.25220847
8	0xbe1ea226	-0.15491542
9	0x3e9d5a7c	0.30733097
10	0x3cf91e3a	0.030409921
11	0xbdbecf02	-0.09316827
12	0xbd4ddd74	-0.050260022
13	0xbdca69e8	-0.09883481
14	0x3d24119b	0.040055852
15	0x3e349484	0.17634779
16	0x3ce12892	0.027485166
17	0x3e3e615f	0.18591832
18	0xbe884383	-0.26614007
19	0x3d2320a4	0.03982605
20	0xbcf5cab9	-0.030003892
21	0x3e0f693d	0.14004989
22	0x3df7bd3f	0.12096643
23	0x3e28d99c	0.16489261
24	0xbdcb407c	-0.09924409
25	0xbb15208a	-0.002275499
26	0xbd11b28e	-0.035570674
27	0xbe26410c	-0.16235751
28	0x3cc944a4	0.024568863
29	0x3e3275fc	0.1742782
30	0x3d012228	0.031526715
31	0xbcb7ac85	-0.02242113
32	0xbc80b2f5	-0.015710333
33	0xbecaaaa7	-0.39583322
34	0xbe72f70a	-0.2372705
35	0x3dc8b5fa	0.09800334
36	0x3e5a1121	0.21295597
37	0x3d193b57	0.037410107
38	0xbdffb80f	-0.12486278
39	0x3d779d40	0.0604527
40	0x3e19fbc6	0.1503745
41	0xbdc5aff1	-0.09652699
42	0xbe78ede5	-0.243095
43	0xbdbbf5c5	-0.09177736
44	0xbeb4d31c	-0.35317314
45	0x3e3be59c	0.18349308
46	0xbbf67cad	-0.0075221867
47	0xbd857129	-0.06515724
48	0xbd3edf37	-0.046599593
49	0xbe0aeb73	-0.13566379
50	0xbd826e34	-0.06368676
51	0x3e0175b4	0.12642556
52	0xbd129cb3	-0.03579397
53	0x3e70063a	0.23439875
54	0xbd72aed6	-0.059248768
55	0x3d7d6cdd	0.0618714
56	0xbd8847fd	-0.06654356
57	0xbd072220	-0.03299153
58	0xbdbc8435	-0.09204904
59	0xbe0343e5	-0.12818868
60	0x3e703c52	0.2346051
61	0xbd84361a	-0.064556316
62	0x3e48baee	0.19602558
63	0xbe3978dd	-0.18112512
64	0x3d8b3ffb	0.06799313
65	0xbd1420b5	-0.036164004
66	0xbd0c70d8	-0.034287304
67	0xbe101d3d	-0.14073654
68	0x3da86749	0.08222825
69	0x3e0e3ea1	0.13891079
70	0x3e71064a	0.23537555
71	0x3d8277bc	0.06370494
72	0xbd8542a9	-0.06506855
73	0xbb713943	-0.0036807812
74	0x3dceea66	0.10103302
75	0x3d9a744c	0.07541713
76	0xbd93e202	-0.07220842
77	0xbdf527d5	-0.11970488
78	0x3c840c58	0.016119167
79	0xbd5affea	-0.053466715
80	0x3d9e7448	0.07737023
81	0xbd3dab94	-0.046306208
82	0x3e0cb3d2	0.13740471
83	0xbd3db8d6	-0.04631885
84	0x3e12d408	0.14338696
85	0x3c25b4fe	0.010113953
86	0x3e5f8378	0.21827495
87	0xbea84f2f	-0.32872912
88	0x3e14e004	0.1453858
89	0x3e02cd61	0.12773658
90	0xbe26c809	-0.16287245
91	0x3e4e657e	0.20155904
92	0xbde47bf3	-0.11156454
93	0x3e7069e6	0.23477897
94	0xbde2c192	-0.11072077
95	0xbd9e3322	-0.077245966
96	0x3c12ce90	0.008960381
97	0xbe24be45	-0.16088207
98	0x3e030fce	0.12798998
99	0xbdf04382	-0.11731626
100	0xbd28f067	-0.04124489
101	0xbe0d5cb8	-0.138049
102	0xbdc5ad39	-0.0965218
103	0x3e71e0a7	0.23620854
104	0x3dd4a849	0.1038366
105	0xbd69d5fe	-0.057088844
106	0x3de6ce18	0.11269778
107	0x3c21c2fd	0.009873149
108	0x3e0d6b9e	0.13810584
109	0x3d185f3f	0.03720021
110	0x3e440eb1	0.1914623
111	0xbd56aea3	-0.05241264
112	0xbebba514	-0.36649382
113	0x3db67215	0.08908478
114	0xbd753bf2	-0.05987162
115	0x3e65a9c1	0.22428037
116	0x3d73aa9e	0.059488885
117	0xbcaa54fc	-0.020792477
118	0x3e2b3fd0	0.16723561
119	0x3dc22de5	0.0948141
120	0x3e81a5ff	0.25321957
121	0xbd1b7db8	-0.03796169
122	0x3a37bb24	0.0007008782
123	0xbd0ea33c	-0.03482364
124	0xbde2cf6d	-0.110747196
125	0x3d961cb7	0.07329696
126	0x3e3e8ced	0.18608446
127	0xbe34ecea	-0.176685
128	0x3f216b1b	0.63054055
129	0x3e27b03e	0.16375825
130	0x3d9b0333	0.075689696
131	0xbdfee1c6	-0.124454066
132	0x3c43ed46	0.011958426
133	0x3d51c825	0.051216263
134	0x3dece785	0.11567596
135	0x3e29af0c	0.16570681
136	0x3d4c2ccd	0.049847413
137	0xbe8f0d62	-0.27939898
138	0xbe3a075a	-0.18166867
139	0x3eab4b93	0.33456096
140	0xbe2d83a5	-0.1694475
141	0xbeb4a766	-0.35283965
142	0xbd1fa6ea	-0.03897754
143	0xbcae7e5a	-0.021300483
144	0x3d4e4564	0.050359145
145	0x3c6fdccc	0.014640044
146	0x3c82ae0d	0.015952135
147	0xbb77f03e	-0.0037832404
148	0x3d47bcba	0.048763968
149	0xbe57c831	-0.2107246
150	0xbbe869a5	-0.007092672
151	0xbe2b54c9	-0.16731562
152	0xbc815357	-0.01578681
153	0xbce6327c	-0.028100245
154	0xbecd36b9	-0.40080813
155	0xbdcdba07	-0.100452475
156	0x3eb8e91b	0.36115345
157	0x3dcbaa2a	0.099445656
158	0x3def1d1d	0.11675475
159	0xbe642c96	-0.22282633
160	0x3e1d59fe	0.1536636
161	0xbd25af45	-0.040450353
162	0x3c39cd14	0.011340398
163	0xbdad5f32	-0.08465423
164	0x3e47eb37	0.19523321
165	0xbe57bfe9	-0.21069302
166	0x3e29606a	0.16540685
167	0xbe365463	-0.17805628
168	0x3e3af34c	0.18256873
169	0x3e3c6009	0.1839601
170	0xbe1106fe	-0.14162824
171	0x3d4ad223	0.04951681
172	0x3dad9e46	0.08477454
173	0x3d927b48	0.0715242
174	0xbd1eace1	-0.03873909
175	0x3da85cb9	0.082208104
176	0x3e25126c	0.16120309
177	0x3ca3448c	0.019930147
178	0x3d3011d5	0.042985756
179	0x3e2c82bb	0.16846745
180	0x3c34ae7c	0.011027928
181	0xbd8f90c0	-0.07010031
182	0xbe90a168	-0.28248143
183	0xbe34a679	-0.1764163
184	0x3d4bfa46	0.049799226
185	0x3eaa0156	0.33204144
186	0x3e56fd0e	0.2099497
187	0xbe05e0e3	-0.13074069
188	0xbd9cb277	-0.07651227
189	0xbc9cbbe4	-0.019132562
190	0xbdbeeb87	-0.09322267
191	0xbd56cf19	-0.052443597
192	0x3d0ae2ba	0.03390763
193	0x3e1d5e8e	0.15368101
194	0xbdfce868	-0.123490155
195	0x3e5b0de5	0.21392019
196	0x3da8c667	0.08240967
197	0x3e05811f	0.13037537
198	0xbd387ad0	-0.045038998
199	0xbde83a42	-0.11339237
200	0x3e1a7d80	0.15086937
201	0xbd3b4a97	-0.04572543
202	0xbe16f5e7	-0.14742242
203	0xbe2387e9	-0.15969814
204	0x3e06317a	0.13104811
205	0xbe80ae01	-0.25132754
206	0x3e82aa32	0.25520474
207	0xbe49f66a	-0.19722906
208	0xbcb89333	-0.022531128
209	0xbe46f3b9	-0.1942891
210	0xbd894f4f	-0.0670458
211	0x3df839bc	0.12120387
212	0xbe0109b2	-0.12601355
213	0x3d18c023	0.03729261
214	0xbe55a06b	-0.20861976
215	0xbe5ca34c	-0.21546668
216	0xbab604c4	-0.0013886918
217	0xbe08deec	-0.13366288
218	0xbe7fdcdb	-0.24986593
219	0xbe20db13	-0.1570857
220	0x3b3dfbe7	0.0028989257
221	0x3c2a5489	0.010396131
222	0x3d68a0fd	0.056794155
223	0x3d994c06	0.074852034
224	0x3e3676a0	0.1781869
225	0xbd48fa30	-0.049066722
226	0xbd119598	-0.035543054
227	0x3cb6633c	0.022264116
228	0xbda8d600	-0.08243942
229	0x3e0c7ebe	0.13720223
230	0x3daae305	0.08344082
231	0x3dbd7164	0.09250143
232	0x3d8e875f	0.06959414
233	0x3dff2d70	0.124598384
234	0x3e99a43f	0.30008122
235	0x3c67f924	0.014158521
236	0xbe1fa493	-0.15590124
237	0x3d8d2279	0.06891341
238	0xbc8134b1	-0.015772196
239	0x3e3378a9	0.17526497
240	0x3ddeb793	0.10874858
241	0x3dad5d2b	0.08465036
242	0xbcd03079	-0.025413739
243	0x3d965b8c	0.0734168
244	0xbddce748	-0.10786301
245	0x3e12427e	0.14283177
246	0xbe4d12ab	-0.20026653
247	0x3e524784	0.20535094
248	0xbe3a9a02	-0.18222812
249	0x3cb2176c	0.021739684
250	0xbc5ab4b2	-0.013348745
251	0x3cd648a9	0.026157694
252	0x3e2672db	0.16254751
253	0x3c8f0990	0.017460614
254	0xbe58fd6c	-0.21190423
255	0x3d629b94	0.055324152

encoder.6.bias f4 [9]
0	0x3ce2c181	0.02768016
1	0xbd6ff92e	-0.058587246
2	0xbdc07eb1	-0.093991645
3	0xbd7cbc1d	-0.061702836
4	0x3e335aea	0.1751515
5	0xbd03ad02	-0.032147415
6	0x3dbb5f0e	0.091489896
7	0xbdb98844	-0.09059194
8	0x3e34ba50	0.17649198

encoder.9.weight f4 [6, 9, 3, 3]
0	0x3da17d06	0.078851745
1	0xbd8092ac	-0.062779754
2	0x3e4b2891	0.19839694
3	0xbd25471f	-0.04035103
4	0xbe1e20b7	-0.15442167
5	0xbd85deef	-0.06536662
6	0x3db8ff8a	0.09033115
7	0x3b1b8a34	0.0023733499
8	0x3e2ee33d	0.17078872
9	0xbd819371	-0.0632695
10	0x3e745017	0.23858677
11	0xbf216be9	-0.6305528
12	0x3e0fefda	0.1405634
13	0x3d875dbb	0.066096745
14	0x3ea1d9b6	0.31611413
15	0x3d52fcc3	0.051510584
16	0x3d2cc18c	0.04217677
17	0xbcd474b8	-0.025934562
18	0xbe59c45b	-0.2126631
19	0xbd78396e	-0.060601644
20	0x3df52244	0.11969426
21	0x3deda6e8	0.116041005
22	0xbd49bdb4	-0.04925318
23	0xbc4a2029	-0.012336769
24	0x3e02ce23	0.12773947
25	0x3de0eeec	0.10983071
26	0xbe1bf389	-0.1522962
27	0x3d3606d7	0.044440117
28	0xbe26a235	-0.16272815
29	0xbdc6f8bc	-0.09715411
30	0xbbea62ad	-0.0071528764
31	0xbd83d10a	-0.064363554
32	0x3e8a3e65	0.27000728
33	0x3d7851f8	0.060625046
34	0x3dae4b23	0.08510425
35	0xbd3164c9	-0.043309007
36	0xbd5eeb7b	-0.05442379
37	0x390d88a2	0.00013497708
38	0xbe160467	-0.14650117
39	0x3d095c5c	0.033535346
40	0xbc82e686	-0.015979063
41	0x3de1ea04	0.11030963
42	0x3c2bcbdc	0.010485616
43	0xbd588bb5	-0.05286761
44	0xbd82861d	-0.06373236
45	0x3dbe1728	0.092817605
46	0x3dfecce4	0.124414235
47	0xbc244c35	-0.010027935
48	0x3dbe124d	0.09280834
49	0xbdceac4d	-0.100914575
50	0xbc6bd0d6	-0.014393052
51	0x3e369bce	0.17832872
52	0x3d1ca16e	0.03823989
53	0xbdef85e7	-0.11695462
54	0xbd09bdf1	-0.033628408
55	0x3cef14e4	0.029184766
56	0x3dce1edb	0.10064479
57	0x3d32b99c	0.043634042
58	0xbd4371e9	-0.047716055
59	0xb8e060ce	-0.000106991836
60	0xbe93f276	-0.2889592
61	0x3ddd9bdd	0.10820744
62	0x3db6e823	0.08930995
63	0x3d93f9ab	0.07225355
64	0x3c4742b0	0.012161896
65	0x3e98f24b	0.29872355
66	0x3d6f5180	0.058427334
67	0x3d86bbd0	0.06578791
68	0xbe2b3f04	-0.16723257
69	0xbe066725	-0.13125284
70	0xbddfcf84	-0.10928252
71	0x3e886beb	0.26644835
72	0xbd982d0c	-0.07430467
73	0x3dd9cc9b	0.106347285
74	0xbe30ff63	-0.17284922
75	0x3db6a7bc	0.089187115
76	0xbc5dd2f2	-0.013539063
77	0xbd31685c	-0.043312415
78	0x3d0fcc77	0.035107102
79	0x3d5d53b9	0.054034922
80	0x3cb126c5	0.021624932
81	0x3db68519	0.08912105
82	0xbd75ccf6	-0.06000992
83	0x3ddd5fe2	0.10809304
84	0xbd3dbce7	-0.04632273
85	0xbdcc747e	-0.099831566
86	0xbc2b985d	-0.010473338
87	0x3dd15c0d	0.102226354
88	0x3dcb3572	0.09922303
89	0xbca6601f	-0.020309506
90	0x3c82faca	0.015988726
91	0x3e57d211	0.21076228
92	0xbec28577	-0.3799245
93	0x3e0b02bc	0.13575262
94	0xbd03816f	-0.03210586
95	0x3ea2da41	0.3180714
96	0x3daccd04	0.08437541
97	0x3c02964a	0.007970402
98	0x3d5ee602	0.05441857
99	0xbaf8d68f	-0.0018984842
100	0x3d5fb39d	0.054614652
101	0xbdb0f46e	-0.08640371
102	0x3bf84be9	0.0075774086
103	0xbdbf27b8	-0.093337476
104	0x3d3730f1	0.04472441
105	0x3d8c3f2b	0.06847986
106	0x3e2d9bc3	0.1695395
107	0xbdefb9df	-0.11705374
108	0x3db4ebf3	0.08834066
109	0xbcd84db0	-0.026404232
110	0xbec20782	-0.37896353
111	0xbc24601a	-0.010032678
112	0xbe21a5ed	-0.15785952
113	0x3e7a9741	0.24471761
114	0x3cd03314	0.025414981
115	0x3dbe973c	0.093061894
116	0x3db2d867	0.08732682
117	0x3d7052c1	0.05867267
118	0xbe140348	-0.14454377
119	0x3e8d3185	0.27576843
120	0xbd4f59e9	-0.050622854
121	0xbe206388	-0.15662968
122	0x3e467133	0.1937912
123	0x3aaca020	0.001317028
124	0x3beb73d0	0.007185437
125	0xbd3e7d7c	-0.04650639
126	0xbdd6008c	-0.10449323
127	0x3de55d90	0.11199486
128	0x3e13f607	0.1444932
129	0x3d15f864	0.036613837
130	0xbe004793	-0.12527303
131	0x3ca03735	0.019557575
132	0x3e8a7d48	0.27048707
133	0x3d59feb0	0.053221405
134	0xbe23145a	-0.15925732
135	0x3d07559c	0.033040628
136	0x3d8e8e5e	0.06960748
137	0xbe3e2ebb	-0.18572514
138	0xbc5f4e7e	-0.013629554
139	0x3bc6a59d	0.006062223
140	0xbc694ab3	-0.014239001
141	0xbea46601	-0.32109073
142	0x3e320843	0.17385964
143	0x3b913626	0.004431504
144	0x3dfd488f	0.12367355
145	0x3d28783b	0.041130286
146	0x3e7c1bb2	0.2461994
147	0x3d855896	0.06511037
148	0x3dda11a1	0.10647894
149	0xbe342f1e	-0.17596099
150	0xbe40090b	-0.1875345
151	0xbddf2ffb	-0.108978234
152	0x3ea0d353	0.31411228
153	0xbde06d7b	-0.10958382
154	0x3d2d1d53	0.042264294
155	0xbe174b4b	-0.14774816
156	0x3df4c8fc	0.11952397
157	0xbd7e7b37	-0.062129226
158	0xbdc02cb4	-0.093835264
159	0x3dd8acb6	0.10579817
160	0x3d9907ea	0.074722126
161	0xbd1c8e4b	-0.03822164
162	0xbd59a53e	-0.053136103
163	0xbd907846	-0.0705419
164	0x3cb16b0c	0.02165749
165	0x3e0a818a	0.13525978
166	0xbdde3d63	-0.10851552
167	0x3e0d2f13	0.13787489
168	0xbd9f8c4e	-0.07790433
169	0x3daea20a	0.08527
170	0xbd9e607c	-0.07733247
171	0x3deadee6	0.11468296
172	0xbd3a8410	-0.0455361
173	0x3e2f8e8a	0.17144218
174	0xbcba3554	-0.022730507
175	0x3ce4cf1c	0.027930789
176	0x3c138418	0.009003662
177	0x3d957b15	0.07298867
178	0xbd316511	-0.043309275
179	0x3e0b070c	0.13576907
180	0x3d317e7b	0.04333351
181	0xbcd3dacc	-0.025861166
182	0xbdefd44e	-0.11710416
183	0x3c5dbf29	0.013534346
184	0xbc83c59f	-0.016085444
185	0x3e0a952f	0.13533472
186	0x3b5e3c88	0.003391059
187	0x3e36803e	0.17822358
188	0xbe2b9492	-0.16755894
189	0x3c0758b2	0.008260893
190	0xbd52fac3	-0.051508676
191	0x3db263bf	0.08710431
192	0xbcf724ad	-0.030168856
193	0x3a230e21	0.0006220062
194	0xbdf5349f	-0.11972927
195	0x3e2accd8	0.16679704
196	0xbdc0b6e0	-0.09409881
197	0x3df65e6e	0.1202973
198	0xbdad1454	-0.08451143
199	0x3de583d9	0.112067886
200	0xbe23bc35	-0.15989764
201	0x3e5f5cd5	0.21812756
202	0xbe24a865	-0.16079862
203	0xbcff94fd	-0.031198973
204	0xbe8bb61b	-0.27287373
205	0x3e1428f4	0.14468747
206	0x3e07099d	0.13187261
207	0x3e053040	0.13006687
208	0x3d779277	0.060442414
209	0x3d8b9b2a	0.068167046
210	0x3da6f41a	0.081520274
211	0xbd90b428	-0.07065612
212	0x3e268146	0.16260251
213	0xbe618f80	-0.22027397
214	0x3cbc86a1	0.023013415
215	0xbe5b0986	-0.21390352
216	0xbe08cf1a	-0.13360253
217	0xbc9e398f	-0.019314555
218	0x3dccea33	0.100056075
219	0xbdcada55	-0.09904925
220	0x3db34c68	0.08754808
221	0x3ded0dce	0.11574899
222	0x3e839280	0.25697708
223	0xbd2cd033	-0.04219074
224	0xbe59cf4c	-0.21270484
225	0x3d1151c7	0.03547838
226	0x3e1dd3b2	0.15412787
227	0xbdd3dc99	-0.1034481
228	0xbdf02362	-0.11725499
229	0x3dc84b3d	0.097799756
230	0xbe268fdb	-0.16265814
231	0x3e611bfb	0.2198333
232	0xbe67c36c	-0.22633141
233	0x3ed04f62	0.40685564
234	0xbbcb3f27	-0.0062025967
235	0x3d5b7032	0.053573795
236	0x3ccf291b	0.025288155
237	0x3dfb9569	0.12284357
238	0x3c792642	0.015206875
239	0xbd154ec6	-0.036452077
240	0xbe5b2eea	-0.21404615
241	0x3dc364ac	0.09540686
242	0xbe232eb7	-0.15935789
243	0x3d061a2d	0.032739807
244	0x3d88e75a	0.06684752
245	0xbe085a4b	-0.13315694
246	0xbe13cac5	-0.14432819
247	0xbe41b77d	-0.18917651
248	0x3e04b5f4	0.12960035
249	0x3e9e37ed	0.30902043
250	0xbc349974	-0.011022914
251	0x3dbc43ea	0.09192641
252	0xbdc53ff0	-0.09631336
253	0xbba0fff9	-0.004913327
254	0x3e2664e2	0.16249421
255	0x3e750668	0.23928225

encoder.9.bias f4 [6]
0	0xbc295e6e	-0.010337455
1	0xbe062c62	-0.13102868
2	0xbd682e09	-0.056684528
3	0x3e00b3bc	0.12568563
4	0x3e00e5c1	0.12587644
5	0xbdfd6aaf	-0.12373864

decoder.1.weight f4 [6, 9, 3, 3]
0	0x3e97bb55	0.2963511
1	0xbca53b20	-0.020169795
2	0x3f02f09a	0.5114838
3	0x3d506a40	0.050882578
4	0x3d91fe17	0.07128542
5	0x3d23d369	0.03999654
6	0x3dddb294	0.10825077
7	0xbdb47330	-0.08811033
8	0xbdee6a3c	-0.11641356
9	0x3da1061e	0.07862495
10	0x3d60d0b1	0.054886524
11	0x3ea1c8f7	0.31598637
12	0x3e344907	0.17605983
13	0x3e177a02	0.14792636
14	0x3eb4a6b8	0.35283446
15	0x3e2cfa4a	0.16892353
16	0x3e69f8cd	0.22848816
17	0x3df6423b	0.12024351
18	0xbd37f6ec	-0.044913217
19	0xbda02f52	-0.07821526
20	0x3e817423	0.25283918
21	0xbdd05102	-0.10171701
22	0x3d465835	0.048423965
23	0xbd92abf2	-0.07161702
24	0x3b28f265	0.0025779244
25	0xbd511809	-0.051048312
26	0x3e80dd0f	0.25168654
27	0x3d47d315	0.048785288
28	0xbcf5eed5	-0.03002111
29	0xbe8b4ad2	-0.2720552
30	0xbe411902	-0.18857196
31	0x3dbbfca4	0.09179047
32	0xbc871846	-0.016491067
33	0x3d442fff	0.047897335
34	0xbde2b8ff	-0.110704415
35	0x3d94a59b	0.07258149
36	0xbd1e6e39	-0.038679335
37	0x3d8c388b	0.06846722
38	0x3bd9ddda	0.006648761
39	0xbbf9c567	-0.007622409
40	0xbd7453bb	-0.059650164
41	0x3de660ec	0.11248955
42	0x3dde1001	0.10842896
43	0x3da1d2b8	0.079015195
44	0x3e63a7c4	0.22231966
45	0x3a0925c7	0.00052317645
46	0x3c1f3d95	0.009719272
47	0xbe7bd5a7	-0.2459322
48	0xbd666f1d	-0.05625831
49	0xbb29c672	-0.0025905636
50	0xbd244935	-0.04010888
51	0xbd48d74c	-0.049033448
52	0xbccfb948	-0.025356904
53	0xbd6fa7b3	-0.05850954
54	0xbe935888	-0.2877848
55	0x3da12dc7	0.078700595
56	0xbdd37a00	-0.10326004
57	0xbe2fd944	-0.17172724
58	0x3dc7dd50	0.09759009
59	0x3dfc83db	0.12329837
60	0xbd7c8067	-0.06164589
61	0xbc6fd9bf	-0.014639317
62	0x3cb38b45	0.021916995
63	0xbe13aad7	-0.14420639
64	0x3e1340d0	0.14380193
65	0x3e2b2986	0.16715059
66	0xbc98fb5f	-0.01867455
67	0x3e35fcee	0.17772266
68	0x3e17e86b	0.14834754
69	0x3d4f676a	0.050635733
70	0x3cecb984	0.028897054
71	0x3d44153a	0.047871806
72	0x3e27b190	0.16376328
73	0x3d0a5626	0.033773564
74	0xbe0e8999	-0.13919677
75	0x3d7e4175	0.062074143
76	0xbd344e97	-0.04402026
77	0x3d4ec0a2	0.050476678
78	0xbdba8d21	-0.091089495
79	0xbd71792f	-0.05895346
80	0xbdf53f68	-0.119749844
81	0xbe3d9298	-0.18512952
82	0x3d08d804	0.033409134
83	0xbeb15740	-0.3463688
84	0xbc1bc890	-0.009508267
85	0xbca3a3ec	-0.019975625
86	0xbdd5240a	-0.104072645
87	0xbdd011d5	-0.10159651
88	0x3cb96ad0	0.02263394
89	0x3cc31c14	0.0238171
90	0x3d34221f	0.043977853
91	0xba827d5c	-0.0009955573
92	0x3dff7074	0.124726206
93	0xbd09eab3	-0.033671092
94	0xbde03293	-0.10947146
95	0xbe6a9f46	-0.2291232
96	0x3cd0a2e5	0.0254683
97	0x3bacfbfe	0.0052790632
98	0x3cedf6b3	0.0290483
99	0x3cfad398	0.030618474
100	0x3dc413a1	0.095740564
101	0xbecc7f2b	-0.3994077
102	0x3e0c4d33	0.13701324
103	0x3def7fce	0.11694299
104	0x3d9f7a99	0.077870555
105	0xbde3487e	-0.11097811
106	0xbda2331d	-0.07919905
107	0xbeadc169	-0.33936623
108	0x3d48b173	0.048997354
109	0x3bc6fd0a	0.006072645
110	0x3eb713e2	0.35757357
111	0x3e3b3324	0.18281227
112	0xbdde4952	-0.108538285
113	0xbdb7c63e	-0.089733586
114	0x3e07b52a	0.13252702
115	0x3e68ccce	0.22734377
116	0x3df9c33f	0.12195443
117	0x3c08cb73	0.008349287
118	0x3d42fe10	0.047605574
119	0x3e6febd0	0.23429799
120	0x3d694ac5	0.05695607
121	0x3c94a983	0.018147236
122	0xbd0737d4	-0.033012226
123	0xbd39304c	-0.045212075
124	0x3d1b6449	0.037937436
125	0xbd5a6b6b	-0.053325098
126	0x3de8c8a0	0.11366391
127	0x3df6f22a	0.12057908
128	0x3eb7d4a2	0.35904413
129	0x3db82808	0.0899201
130	0x3c90ed08	0.01769115
131	0x3d75ba11	0.0599919
132	0x3d925134	0.071443945
133	0x3d01d11f	0.031693574
134	0xbdce1450	-0.10062468
135	0x3dc0fdd9	0.094234176
136	0x3db1128b	0.08646115
137	0x3ebc4ca9	0.36777237
138	0xbd8d6bd1	-0.0690533
139	0xbc1716ba	-0.009221727
140	0xbd10af48	-0.03532341
141	0xbe1969b6	-0.14981732
142	0xbd9d2c6f	-0.07674491
143	0x3c18d896	0.009328982
144	0x3dd589c8	0.1042667
145	0xbdfee6e3	-0.12446382
146	0xbde1321f	-0.10995888
147	0x3d2b558f	0.041829642
148	0xbdffe763	-0.124953054
149	0xbdbeea02	-0.09321977
150	0x3db3b7a5	0.08775262
151	0xbb68a575	-0.003549901
152	0xbdfcde6a	-0.123471096
153	0x3cb0a4d8	0.021562979
154	0x3e025e81	0.12731363
155	0x3e31ce4c	0.17363852
156	0x3c47a64d	0.012185645
157	0x3e0d33f6	0.13789353
158	0xbb25f28d	-0.0025321573
159	0x3de4db24	0.1117461
160	0x3e1f3a49	0.15549578
161	0x3dc9b559	0.098490424
162	0xbdef3d6a	-0.11681636
163	0x3dcc1fd1	0.09967006
164	0xbda14c46	-0.07875876
165	0x3d9f852d	0.07789073
166	0x3d0cffe4	0.034423724
167	0x3cebfd7b	0.028807392
168	0xbd09ec88	-0.03367284
169	0x3cefbc13	0.029264485
170	0x3d5a8d86	0.053357624
171	0xbd88a72e	-0.06672512
172	0xbcafbc49	-0.021452086
173	0xbda277a7	-0.07932978
174	0xbcdc60af	-0.026901571
175	0xbd058a7b	-0.03260277
176	0xbdc2af4c	-0.095060915
177	0xbcbfa30a	-0.023393173
178	0x3af5b531	0.0018746016
179	0xbd6f0258	-0.058351845
180	0xbcfb3a15	-0.030667344
181	0x3ab70612	0.0013963601
182	0xbe039895	-0.12851174
183	0x3d9915fd	0.07474897
184	0x3cac67bc	0.021045558
185	0x3d957e3e	0.072994694
186	0xbde17e2d	-0.11010394
187	0xbe212095	-0.15735085
188	0xbeba15ee	-0.36344856
189	0xbe3f5257	-0.18683754
190	0x3cc8b2b3	0.024499273
191	0xbd2b6678	-0.04184577
192	0x3db6206a	0.08892901
193	0xbbafa07b	-0.005359707
194	0xbd832a72	-0.0640458
195	0xbed12ab5	-0.40852895
196	0x3da1b19a	0.07895203
197	0xbd0ca50b	-0.034337085
198	0x3ce12da5	0.027487585
199	0x3c26ddb7	0.010184697
200	0xbdbf201d	-0.09332297
201	0xbd4a1da2	-0.049344666
202	0xbd97193c	-0.0737786
203	0x3d3611ef	0.044450697
204	0x3e8c893d	0.27448454
205	0x3cf714a2	0.030161206
206	0x3e008ae0	0.12552977
207	0xbd7ea900	-0.06217289
208	0xbde6adf8	-0.11263651
209	0xbe008536	-0.12550816
210	0xbdcc5d6f	-0.099787585
211	0x3bbb57e1	0.005717263
212	0xbdda4d0b	-0.10659226
213	0x3dbdadd7	0.09261673
214	0x3cd42b4e	0.025899556
215	0xbec42d14	-0.38315642
216	0x3d93327b	0.07187363
217	0x3d76692d	0.060158897
218	0x3a9016d0	0.0010993127
219	0x3d6746a2	0.056463845
220	0xbd0392ce	-0.032122426
221	0xbdcd573f	-0.100264065
222	0x3e8257b1	0.25457528
223	0x3dceb2c9	0.10092694
224	0x3e023d02	0.12718585
225	0xbddfbe62	-0.109249845
226	0xbdbe937d	-0.09305475
227	0xbca328c0	-0.019916892
228	0xbe0108c8	-0.12601006
229	0x3db367b7	0.087600164
230	0xbde0c4fa	-0.1097507
231	0xbefb6fcd	-0.49108735
232	0x3da68c1c	0.081321925
233	0xbe94921b	-0.2901772
234	0x3e2ae94b	0.16690557
235	0x3c55a797	0.013040445
236	0x3d294439	0.041324828
237	0x3e26f696	0.16305003
238	0x3e005162	0.12531045
239	0xbd52812d	-0.051392723
240	0x3d9b1d7a	0.075739816
241	0x3e56aaef	0.20963643
242	0xbdd9b7b8	-0.10630745
243	0x3e8e49d1	0.27790692
244	0xbd2bf9cf	-0.041986283
245	0x3d6cd351	0.057818715
246	0x3bf3b15c	0.0074369144
247	0x3d8346b1	0.06409968
248	0xbdee65e7	-0.1164053
249	0x3eaf754b	0.34269175
250	0x3ca15e00	0.019698143
251	0xbc9438b7	-0.01809345
252	0xbe0fa7e1	-0.14028884
253	0xbe0f3605	-0.1398545
254	0xbe3bff11	-0.18359019
255	0xbe6a1da9	-0.22862877

decoder.1.bias f4 [9]
0	0x3bcaef45	0.006193074
1	0x3ab419eb	0.0013740634
2	0x3a84435e	0.0010090878
3	0xb914a381	-0.0001417529
4	0xbc2a287b	-0.010385628
5	0xbb493115	-0.0030699421
6	0x3c511212	0.012760656
7	0x3ba0beb4	0.004905546
8	0xbb93e1d4	-0.004513005

decoder.3.weight f4 [9, 12, 3, 3]
0	0x3ec1dbd9	0.37863043
1	0xbd031ec5	-0.032011766
2	0x3cd774a6	0.02630074
3	0x3d7ee16b	0.062226694
4	0xbdaeca01	-0.08534623
5	0x3d9fbf16	0.078001186
6	0x3c884038	0.016632184
7	0x3d19f36f	0.037585672
8	0x3e0bdfac	0.13659543
9	0x3e781819	0.24227943
10	0xbc80faa2	-0.015744511
11	0x3e44a0ff	0.1920204
12	0xbafd619f	-0.0019331462
13	0x3cd5d154	0.026100792
14	0xbd6f6c81	-0.058453087
15	0xbd2c2b81	-0.042033676
16	0xbc2a283e	-0.010385571
17	0xbd25fb8f	-0.040523108
18	0xbe9120a4	-0.28345215
19	0xbc8500ad	-0.016235674
20	0x3e8e7f75	0.27831617
21	0xbd56c3b7	-0.052432742
22	0xbc39c9ef	-0.011339649
23	0x3dab9b62	0.08379246
24	0xbdf91201	-0.12161637
25	0xbbb7641b	-0.0055966503
26	0xbe7ede4d	-0.24889489
27	0x3e083549	0.13301577
28	0xbbfcd773	-0.0077161132
29	0x3d40de6a	0.04708711
30	0x3d3810b4	0.044937804
31	0x3a9942a1	0.0011692831
32	0xbbd9900b	-0.0066394857
33	0x3cf22c81	0.029562237
34	0x3d491036	0.049087726
35	0xbe8ddc65	-0.2770721
36	0xbe2364cd	-0.15956421
37	0x3c9b9ceb	0.018995723
38	0xbe4ac5f1	-0.19802071
39	0xbc76772b	-0.01504306
40	0xba59e22b	-0.0008311595
41	0xbc462f7d	-0.012096283
42	0xbe637239	-0.22211541
43	0x3d59fac6	0.05321767
44	0x3e3fe925	0.18741281
45	0x3ec176dd	0.37785998
46	0x3d05acd2	0.032635517
47	0x3e0f2cda	0.13981953
48	0x3cca678a	0.024707574
49	0xbdd9f8a9	-0.10643131
50	0x3cfcb112	0.030846152
51	0xbd91e48d	-0.07123671
52	0xbcad3591	-0.021143707
53	0x3e4d770d	0.20064946
54	0x3ecf6b81	0.40511706
55	0x3e8a9981	0.2707024
56	0x3e8f7678	0.28020072
57	0x3e18a8f4	0.149082
58	0x39c8a39f	0.0003826888
59	0xbd547329	-0.051867638
60	0x3dc592e9	0.096471615
61	0xbd1cee59	-0.038313244
62	0xbe931aa3	-0.2873126
63	0x3d93be27	0.07214003
64	0xbcd8f9bd	-0.026486272
65	0x3c9b8e7a	0.018988837
66	0x3c04fd1e	0.008116988
67	0xbd7500bb	-0.05981515
68	0x3d766484	0.060154453
69	0xbe759275	-0.2398165
70	0xbd94aee1	-0.07259918
71	0xbe8961ec	-0.2683252
72	0x3e5f0af2	0.21781519
73	0xbc99d4b3	-0.01877818
74	0x3d1f14f0	0.038838327
75	0x3dc4593f	0.09587335
76	0xbdd1ed55	-0.102503456
77	0x3ca3c079	0.019989239
78	0x3e811ad9	0.25215796
79	0xbce0f843	-0.02746213
80	0xbdd3ccd2	-0.10341801
81	0x3e15221e	0.14563796
82	0x3bdbe553	0.006710687
83	0x3d99f90f	0.07518207
84	0x3e50bbcd	0.2038414
85	0xb9843ac5	-0.0002522079
86	0xbd2b6be6	-0.041850947
87	0xbb2f791b	-0.0026775065
88	0x3d051418	0.032489866
89	0x3e2ce102	0.16882709
90	0x3cdd73c9	0.02703275
91	0xbc1e256d	-0.009652478
92	0xbd9b8425	-0.07593564
93	0xbd01c3a3	-0.031680714
94	0xbb63c70c	-0.0034756092
95	0xbbcd3a24	-0.0062630344
96	0x3ec413c9	0.38296345
97	0xbbb87c86	-0.0056300787
98	0x3caccc3f	0.021093486
99	0xbe8db3ab	-0.27676138
100	0xbd6ef46d	-0.05833857
101	0xbf0b7e17	-0.5448927
102	0xbe221e2b	-0.1583182
103	0xbc1aec69	-0.009455779
104	0xbdc79fa0	-0.09747243
105	0xbd7cbc67	-0.061703112
106	0x3ccfaa57	0.025349779
107	0x3e53a3b5	0.20667918
108	0xbe4584a4	-0.1928888
109	0xbdba4390	-0.09094918
110	0x3e5b079c	0.21389621
111	0x3c0cf591	0.0086034695
112	0x3d602e61	0.05473173
113	0x3d8be9b4	0.06831685
114	0x3d3f0005	0.046630878
115	0xbd53d31a	-0.051714994
116	0xbd9f480f	-0.07777416
117	0xbc8e008b	-0.017334243
118	0xbc88e8cb	-0.016712567
119	0x3ddc12a2	0.107457414
120	0xbd22e93a	-0.039773203
121	0xbdd6cdea	-0.10488494
122	0x3d0eab30	0.034831226
123	0xbc1bcfaa	-0.00950996
124	0xbd119d14	-0.035550192
125	0x3c19e9e6	0.009394145
126	0xbc26f7bc	-0.0101909
127	0x3e08013d	0.13281722
128	0x3e47ffec	0.1953122
129	0xbca90224	-0.020630904
130	0x3c261c12	0.010138528
131	0xbdaf634b	-0.085638605
132	0xbe1ad748	-0.15121186
133	0xbb2c2869	-0.0026269204
134	0xbdfc22a7	-0.12311297
135	0xbdb5e678	-0.08881849
136	0xbcb44115	-0.02200369
137	0x3ebb9b0d	0.36641732
138	0x3b5c2501	0.0033591392
139	0x3d5e6129	0.054291878
140	0x3d00906f	0.031387743
141	0xbd224742	-0.039618738
142	0xbc63d812	-0.013906496
143	0x39a16a6c	0.00030787603
144	0x3db16735	0.08662263
145	0xbc8e4903	-0.0173688
146	0x3db7535a	0.08951445
147	0x3b16fabd	0.0023037635
148	0xbc4598af	-0.012060328
149	0x3cd90d3b	0.026495567
150	0x3e326111	0.1741984
151	0xbd5c69e3	-0.05381192
152	0xbdf1cccd	-0.11806641
153	0xbcc7f1e3	-0.024407333
154	0xbd2724d6	-0.040806614
155	0xbd832e9f	-0.06405377
156	0xbc229816	-0.009923955
157	0x3d41411d	0.047181237
158	0xbc201168	-0.009769775
159	0x3e990011	0.29882863
160	0xbd05810b	-0.032593768
161	0x3c7d7b3f	0.015471279
162	0x3d36a4ed	0.04459088
163	0x3d408771	0.047004167
164	0x3e40f96c	0.18845147
165	0xbe518081	-0.20459177
166	0x3c79aa8a	0.015238414
167	0x3d8834b3	0.066506766
168	0xbe856400	-0.26052856
169	0x3b48a8ff	0.0030618308
170	0xbc2cf8ef	-0.010557397
171	0xbb1ae125	-0.0023632732
172	0xbdd008f4	-0.10157958
173	0x3e06ee42	0.13176826
174	0xbda4d12a	-0.080477074
175	0x3be7e22b	0.007076522
176	0xbd1ee023	-0.038787972
177	0x3dce6fc0	0.10079908
178	0xbc2615c7	-0.010137028
179	0x3bc4313d	0.005987315
180	0xbda465d3	-0.08027234
181	0x3df96621	0.12177683
182	0x3e9d0a6f	0.30672023
183	0x3d79d5c9	0.060994897
184	0x3d925581	0.07145215
185	0x3d3a09e3	0.045419585
186	0xbdcd04c1	-0.10010672
187	0xbd64bfb4	-0.055846885
188	0xbdb88d98	-0.09011382
189	0x3bdd13dc	0.006746752
190	0x3dd6905c	0.10476753
191	0x3dd1ab16	0.1023771
192	0x3c2a8dc3	0.010409775
193	0x3da0fe49	0.07861001
194	0x3e1ce9b5	0.15323527
195	0x3e581ea3	0.21105437
196	0x3ccac970	0.024754256
197	0x3dc986a6	0.09840135
198	0xbe1911d1	-0.14948203
199	0x3b653db4	0.0034979405
200	0xbe8f2cb4	-0.27963793
201	0xbcc328eb	-0.023823222
202	0xbdea507f	-0.11441135
203	0x3d0f6f72	0.035018392
204	0xbed9efa7	-0.42565653
205	0xbd11da39	-0.035608504
206	0xbd962e17	-0.0733301
207	0xbd5739b0	-0.05254525
208	0xbdc0bf55	-0.09411494
209	0xbe9c4948	-0.3052466
210	0x3ccd7720	0.025081217
211	0xbd00d2e0	-0.031451106
212	0xbd9da1b0	-0.07696855
213	0xbd3c4d4c	-0.045972154
214	0xbbe32743	-0.0069321706
215	0xbda10ff0	-0.07864368
216	0xbe341230	-0.17585063
217	0xbdb19996	-0.08671872
218	0x3df6f70d	0.1205884
219	0xbb2b684b	-0.0026154693
220	0xbd0190df	-0.0316323
221	0xbd85d8ce	-0.06535493
222	0x3e37a93b	0.1793565
223	0x3dbafd18	0.09130305
224	0x3d6108e5	0.054940123
225	0xbe960409	-0.29299954
226	0xbd6410ca	-0.055680074
227	0x3e938c9b	0.2881821
228	0xbdb4ab52	-0.08821739
229	0xbd111231	-0.03541774
230	0x3ca03990	0.019558698
231	0xbab71bfc	-0.0013970132
232	0xbc811d02	-0.015760902
233	0x3e91e5a7	0.28495523
234	0x3e0dc744	0.13845545
235	0x3d1b2437	0.037876334
236	0xbd3943ed	-0.045230795
237	0x3d8dfcec	0.06933007
238	0xbd27e979	-0.04099414
239	0xbd9c8d8d	-0.07644186
240	0x3def2d1d	0.116785266
241	0xbcdefcc7	-0.027220143
242	0x3e957920	0.29193974
243	0xbd1d6404	-0.03842546
244	0xbd41f189	-0.047349487
245	0xbe7f1411	-0.24909998
246	0xbd0662b6	-0.03280898
247	0x3d403c4c	0.046932504
248	0x3d4ec6a5	0.05048241
249	0xbeb112c4	-0.3458463
250	0xbd45f227	-0.048326638
251	0xbdd2905b	-0.1028144
252	0xbdcef53e	-0.1010537
253	0x3d169d7f	0.036771294
254	0xbe83a2f7	-0.2571027
255	0xbc573885	-0.013136034

decoder.3.bias f4 [12]
0	0x3c2cc3d0	0.010544732
1	0x3c112857	0.008859715
2	0xbc0c9d38	-0.008582406
3	0x3c4fa525	0.012673651
4	0x3c394040	0.011306822
5	0x3adef9a4	0.0017011655
6	0x3c794380	0.015213847
7	0x3c6be922	0.014398845
8	0x3b17adbc	0.0023144325
9	0x39801f32	0.00024437305
10	0xba3abf0b	-0.00071238045
11	0x3b91258a	0.004429524

decoder.5.weight f4 [12, 15, 3, 3]
0	0x3d70b462	0.058765776
1	0xbc030fe1	-0.007999391
2	0xbd07c8f3	-0.033150624
3	0x3d061ae2	0.03274048
4	0x3d9b2cae	0.07576881
5	0xbcb95033	-0.02262125
6	0xbd7c583f	-0.061607596
7	0xbd1ca607	-0.038244274
8	0x3e26fd19	0.16307487
9	0xbe3fee1a	-0.18743172
10	0xbd85bc24	-0.065300256
11	0x3e048c02	0.12944034
12	0x3dbbbd03	0.091669105
13	0xbdbb45ee	-0.091441974
14	0x3dcf4ba2	0.10121848
15	0xbc7d85e4	-0.015473817
16	0xbd140b14	-0.036143377
17	0x3c1a83e6	0.009430861
18	0x3d2a1d90	0.0415321
19	0x3b8cf948	0.0043021776
20	0xbdd26991	-0.102740414
21	0x3dd07075	0.101776995
22	0x3d203b43	0.039119016
23	0xbd8bf2c9	-0.06833417
24	0xbc09c946	-0.008409804
25	0xbe1e6b20	-0.15470552
26	0xbe647843	-0.22311501
27	0xbd477f4c	-0.048705384
28	0x3dad2e39	0.08456082
29	0xbbc4f620	-0.0060107857
30	0x3ea895e2	0.32926852
31	0x3d06f9a4	0.03295292
32	0xbded8816	-0.11598222
33	0xbe83c374	-0.25735056
34	0x3d7128e8	0.058876902
35	0x3e03cf2e	0.12872002
36	0xbe7da397	-0.24769436
37	0x3d5dd9b3	0.054162692
38	0x3a82e2f9	0.0009985856
39	0x3d950361	0.07276035
40	0x3c47ae93	0.012187618
41	0x3cd93d72	0.026518557
42	0x3c9637eb	0.01833721
43	0x3cd5e405	0.026109705
44	0xbd7a7ac4	-0.061152235
45	0x3d520f86	0.051284336
46	0xbdbd31dc	-0.092380255
47	0x3d44c93b	0.04804347
48	0xbdd04bca	-0.101707056
49	0x3e10fb9e	0.14158484
50	0xbae9d4ba	-0.0017839887
51	0x3e632f0b	0.22185914
52	0xbe97c103	-0.29639444
53	0x3e478639	0.19484796
54	0x3e2c9bcc	0.16856307
55	0xbd9ca826	-0.07649259
56	0xbe25fa5c	-0.16208786
57	0xbcca8d05	-0.024725446
58	0xbd96282f	-0.07331883
59	0xbd74a0ae	-0.05972355
60	0xbe7a8da7	-0.24468099
61	0xbdcc72c4	-0.09982827
62	0x3e39818b	0.18115823
63	0xbcf8dd5a	-0.030378986
64	0xbdbe6bb0	-0.092978835
65	0x3dea796f	0.11448943
66	0xbd8eb022	-0.069671884
67	0x3e02c2a0	0.12769556
68	0x3d2ac7b4	0.041694358
69	0xbe4e4795	-0.20144494
70	0x3e500e2d	0.20317908
71	0xbe16c683	-0.14724164
72	0xbe1ac768	-0.1511513
73	0xbc2d50cd	-0.010578346
74	0x3c544aa3	0.012957248
75	0x3dc0fc9b	0.09423181
76	0x3dc86907	0.097856574
77	0x3deae82d	0.11470065
78	0xbe257024	-0.1615606
79	0xbad7ee02	-0.001647413
80	0xbc88a7ea	-0.01668163
81	0xbe89bca4	-0.26901734
82	0xbaee1cf9	-0.0018166594
83	0x3dd748cf	0.10511934
84	0xbda158ab	-0.0787824
85	0x3c345de7	0.011008716
86	0x3e0b2427	0.1358801
87	0xbe13823e	-0.14405152
88	0x3d37c137	0.044862
89	0x3cef2367	0.029191686
90	0x3c8940b4	0.016754486
91	0xbd955293	-0.072911404
92	0x3e873ac4	0.26412022
93	0x3cb26c71	0.021780225
94	0x3dedfd72	0.116206065
95	0x3d902a02	0.07039262
96	0x3e6a20af	0.2286403
97	0x3db7d689	0.08976466
98	0x3cf3a4f1	0.029741736
99	0xbd43bb87	-0.047786262
100	0xbe1d1392	-0.15339497
101	0xbd6ae2f6	-0.057345353
102	0xbcdd8181	-0.027039291
103	0xbc47c562	-0.012193056
104	0xbcc6f039	-0.024284469
105	0xbc42a37b	-0.011879797
106	0x3d8c6603	0.06855395
107	0x3e95250d	0.2912983
108	0xbd580042	-0.05273462
109	0xbbb6e0f2	-0.005581015
110	0xbdaaba2a	-0.08336289
111	0xbc2bd099	-0.010486745
112	0x3d9f2ca8	0.077721894
113	0xbd24a650	-0.04019767
114	0xbe8108ec	-0.2520212
115	0x3b9d86ef	0.004807345
116	0x3ae1098d	0.0017168984
117	0xbd9d924c	-0.076939195
118	0xbdc1ec91	-0.094689496
119	0x3d830266	0.06396942
120	0x3dbf4c48	0.09340721
121	0xbca26345	-0.019822726
122	0x3dd065d3	0.101756714
123	0xbde2e5d4	-0.110789925
124	0x3c07d337	0.008290104
125	0xbdc6460d	-0.0968133
126	0x3d66373f	0.05620503
127	0xbcbee23d	-0.023301238
128	0xbdb70c10	-0.089378476
129	0xbd5f4640	-0.054510355
130	0x3cbe9e0e	0.023268726
131	0x3ce01cd3	0.027357494
132	0xbe81e94d	-0.25373307
133	0x3d97dae4	0.07414797
134	0x3e8cf66c	0.27531755
135	0x3bf72ff6	0.007543559
136	0xbd32f5e7	-0.043691542
137	0xbce885db	-0.02838414
138	0x3b6d147e	0.0036175544
139	0xbca42f8e	-0.020042207
140	0xbdd29801	-0.10282899
141	0xbbd19472	-0.00639587
142	0xbdaab788	-0.08335787
143	0x3df6464e	0.12025128
144	0xbd195f36	-0.037444316
145	0x3daca506	0.08429913
146	0xbc4ed85d	-0.012624827
147	0x3dd572f8	0.10422319
148	0x3db91700	0.0903759
149	0xbd9c8ab9	-0.07643647
150	0xbccd940c	-0.025095008
151	0x3d794f23	0.060866486
152	0x3d62ac45	0.05534007
153	0xbc318381	-0.010834576
154	0xbdaa5232	-0.08316459
155	0x3c81fc0f	0.015867261
156	0x3d8be9a1	0.068316706
157	0xbde27dd8	-0.11059159
158	0x3dd83ab2	0.1055807
159	0xbe37bca8	-0.1794306
160	0x3cd36cad	0.025808657
161	0x3dda60df	0.10663008
162	0xbe94f62f	-0.29094073
163	0xbb426261	-0.002966069
164	0x3e72cf23	0.23711829
165	0x3d611505	0.054951686
166	0xbbc4a61b	-0.0060012466
167	0xbe213e5e	-0.15746447
168	0x3d903c54	0.07042757
169	0xbe169b95	-0.14707787
170	0x3dd312a4	0.1030629
171	0xbcbef90f	-0.02331212
172	0x3e07d2fc	0.13264078
173	0xbe26012b	-0.16211383
174	0x3d1a1c65	0.037624735
175	0x3e17a0d3	0.14807443
176	0x3dd72269	0.1050461
177	0xbd3b5788	-0.045737773
178	0x3e758733	0.23977356
179	0x3e68f97f	0.22751425
180	0xbe4f0460	-0.20216513
181	0x3ea3ec92	0.32016426
182	0xbe47f1ca	-0.19525829
183	0x3dca305d	0.09872506
184	0xbd9efa3a	-0.07762571
185	0x3e222a57	0.15836464
186	0x3d2850ea	0.04109279
187	0xbe14470a	-0.14480224
188	0x3dd617b2	0.10453738
189	0xbd15d039	-0.03657553
190	0xbe3149e2	-0.1731334
191	0x3e84c123	0.25928602
192	0xbeb8351a	-0.35978013
193	0x3d90a933	0.07063522
194	0xbd44f3a3	-0.048083913
195	0x3d5723bd	0.052524317
196	0xbc94718f	-0.018120555
197	0x3dde75ce	0.10862313
198	0x3e0913f9	0.13386525
199	0xbd8b3f81	-0.06799222
200	0xbe91bf64	-0.28466332
201	0x3d265f45	0.0406182
202	0xbd291582	-0.041280277
203	0xbe91bed3	-0.284659
204	0x3e26c35e	0.16285464
205	0x3dbda2f9	0.092596
206	0x3cc6572a	0.024211485
207	0xbd863826	-0.06553678
208	0xbd37e273	-0.044893693
209	0xbe221219	-0.15827216
210	0xbca2e008	-0.019882217
211	0x3ca98060	0.020691097
212	0xbcb39b9e	-0.02192479
213	0x3da9398c	0.08262929
214	0x3e041dc9	0.12901987
215	0xbce06283	-0.027390724
216	0xbdcfc1cd	-0.101443864
217	0x3d90cd48	0.07070404
218	0xbe23aff3	-0.15985088
219	0x3d4725e5	0.048620123
220	0x3e04ed48	0.1298114
221	0xbdae64e9	-0.08515341
222	0x3d146bf1	0.036235753
223	0x3d536600	0.051610947
224	0xbcd404ce	-0.025881197
225	0x3cf1c34a	0.029512066
226	0x3d88260c	0.06647882
227	0x3d9c1406	0.07621007
228	0x3db7d059	0.08975286
229	0xbe1d51ff	-0.1536331
230	0xbe29c115	-0.16577561
231	0x3d1d5c87	0.03841832
232	0x3d3a48bc	0.04547952
233	0xbe74dd95	-0.23912652
234	0x3da6a4b1	0.08136881
235	0xbcc274f7	-0.023737414
236	0x3da24b77	0.0792455
237	0xbd5b4144	-0.05352904
238	0xbd2906fb	-0.041266423
239	0x3c50e75d	0.012750474
240	0xbe504d0d	-0.20341893
241	0xbd1e431f	-0.03863823
242	0x3e36e81d	0.17861982
243	0xbe08e06b	-0.13366859
244	0x3d9865a3	0.07441261
245	0xbded1d28	-0.11577827
246	0x3d56102f	0.052261528
247	0xbb17af95	-0.0023145427
248	0x3d91103d	0.07083175
249	0x3e446fbd	0.1918325
250	0xbc5c25a8	-0.013436712
251	0x3cf45fe2	0.029830877
252	0xbd184a10	-0.037180007
253	0xbd38e07f	-0.04513597
254	0xbe2b9035	-0.1675423
255	0x3d607478	0.054798573

decoder.5.bias f4 [15]
0	0xbbade2f5	-0.0053065964
1	0x39acf29f	0.00032987163
2	0x3b100ddd	0.002198092
3	0xb82efe95	-4.172193e-05
4	0xbaf9ae3c	-0.0019049118
5	0x3b3131ed	0.0027037815
6	0xbb7a0758	-0.003815135
7	0x3a1b94b6	0.00059349404
8	0x3aadcdab	0.0013260146
9	0xbb695f35	-0.0035609726
10	0x39d49222	0.00040544668
11	0x38be0a4b	9.061823e-05
12	0x3b362ddb	0.0027798328
13	0x3a87b05a	0.001035224
14	0xbaced021	-0.001577858
